loss: 0.0018 - mean_absolute_percentage_error: 6.0671 - val_loss: 0.0016 - val_mean_absolute_percentage_error: 6.3189
Model: "sequential"
_________________________________________________________________
Layer (type)                 Output Shape              Param #   
=================================================================
dense (Dense)                (None, 4)                 20        
_________________________________________________________________
dense_1 (Dense)              (None, 4)                 20        
_________________________________________________________________
leaky_re_lu (LeakyReLU)      (None, 4)                 0         
_________________________________________________________________
dense_2 (Dense)              (None, 4)                 20        
_________________________________________________________________
leaky_re_lu_1 (LeakyReLU)    (None, 4)                 0         
_________________________________________________________________
dense_3 (Dense)              (None, 3)                 15        
=================================================================
Total params: 75

Input: 
[[0.20641441 0.93609283 0.68393095 0.59838444]
 [0.33142031 0.28990846 0.78950354 0.1112044 ]
 [0.53894542 0.38764745 0.86183937 0.01959373]
 ...
 [0.01598832 0.4184065  0.94885168 0.93261054]
 [0.66013908 0.65559783 0.19506032 0.25508004]
 [0.534269   0.21323924 0.0951017  0.1332625 ]]
Prediction: 
…
