…
model.compile(loss= 'mse',
              optimizer = opt,
              metrics = ['mean_absolute_percentage_error'])
history = model.fit(input_Arr, target_Arr, batch_size= batchSize, epochs=numEpochs,
                    validation_data = (input_Arr_val, target_Arr_val),
                    use_multiprocessing = True)

model.save("NBSTE-Output\\trainedModel_NCEE.hd5")

_________________________________________________________________
Layer (type)                 Output Shape              Param #   
=================================================================
dense (Dense)                (None, 9)                 54        
_________________________________________________________________
dense_1 (Dense)              (None, 9)                 90        
_________________________________________________________________
leaky_re_lu (LeakyReLU)      (None, 9)                 0         
_________________________________________________________________
dense_2 (Dense)              (None, 9)                 90        
_________________________________________________________________
leaky_re_lu_1 (LeakyReLU)    (None, 9)                 0         
_________________________________________________________________
dense_3 (Dense)              (None, 9)                 90        
_________________________________________________________________
leaky_re_lu_2 (LeakyReLU)    (None, 9)                 0         
_________________________________________________________________
dense_4 (Dense)              (None, 9)                 90        
_________________________________________________________________
leaky_re_lu_3 (LeakyReLU)    (None, 9)                 0         
_________________________________________________________________
dense_5 (Dense)              (None, 9)                 90        
_________________________________________________________________
leaky_re_lu_4 (LeakyReLU)    (None, 9)                 0         
_________________________________________________________________
dense_6 (Dense)              (None, 4)                 40        
_________________________________________________________________
leaky_re_lu_5 (LeakyReLU)    (None, 4)                 0         
=================================================================
Total params: 544