 loss: 8.3101e-05 - mean_absolute_percentage_error: 4170.2734 - val_loss: 8.7233e-05 - val_mean_absolute_percentage_error: 4235.4546
Model: "sequential"
_________________________________________________________________
Layer (type)                 Output Shape              Param #   
=================================================================
dense (Dense)                (None, 4)                 20        
_________________________________________________________________
dense_1 (Dense)              (None, 4)                 20        
_________________________________________________________________
leaky_re_lu (LeakyReLU)      (None, 4)                 0         
_________________________________________________________________
dense_2 (Dense)              (None, 4)                 20        
_________________________________________________________________
leaky_re_lu_1 (LeakyReLU)    (None, 4)                 0         
_________________________________________________________________
dense_3 (Dense)              (None, 3)                 15        
=================================================================
Total params: 75

Input: 
[[0.33659295 0.43275477 0.         0.60293149]
 [0.66977512 0.01535778 0.         0.9122673 ]
 [0.0324512  0.40865182 0.         0.36041949]
 ...
 [0.16631585 0.73690058 0.         0.16233177]
 [0.89188625 0.14528163 0.         0.33567345]
 [0.99238213 0.56199254 0.         0.12972241]]
Prediction: 
…
